colab/model_file/forest_gunshot_model.tflite (tflite, 22072 bytes, 4 tensors)

tfl.pseudo_qconst1 i1 [1, 32] scale=0.0033494944 zero_point=0
-0.14067876 -0.4253858 0.23446462 -0.16747472 0.37179387 0.21771714 -0.23111512 -0.20096967
0.10383432 -0.37514338 0.30815348 0.17417371 -0.20096967 -0.28805652 -0.26795956 -0.11388281
-0.22106664 -0.37514338 0.17752321 -0.08373736 0.3516969 0.35504642 0.24786259 0.16412523
-0.38854134 -0.37849286 -0.37849286 -0.37179387 -0.32825047 -0.11388281 0.3617454 0.013397978
00000000: d681 46ce 6f41 bbc4 1f90 5c34 c4aa b0de
00000010: be90 35e7 696a 4a31 8c8f 8f91 9ede 6c04

tfl.pseudo_qconst3 i1 [32, 480]
-53 20 10 -47 24 75 -40 25
15 -59 -28 110 -2 -5 -72 -20
-14 25 50 63 36 -13 28 -14
-14 35 9 4 -53 75 8 7
62 30 82 26 70 56 -62 53
-35 51 -44 7 -26 63 53 -10
-50 -36 25 -56 -36 127 15 -58
90 -48 -37 -36 -43 51 6 -63
121 39 -17 51 32 55 -39 -26
-14 -23 112 0 -17 -24 39 -77
-8 43 39 67 -56 26 77 -21
-63 43 4 81 31 -77 -46 11
-49 -19 65 4 67 -79 23 -18
67 31 -46 -53 4 33 20 40
-27 -2 79 47 -12 -15 91 -41
-61 60 65 23 44 28 39 -10
1 58 -86 -56 -15 -47 10 -21
6 -45 -13 -53 46 -45 -41 41
-5 -3 15 28 -47 24 30 -21
44 58 -40 66 58 44 17 -40
-67 67 15 34 -2 43 -30 -53
-69 22 56 40 -62 -50 -55 44
-41 -47 107 -8 -2 8 -42 -15
1 -40 -32 82 49 15 20 -24
-34 -28 -34 18 21 -12 -16 2
67 34 19 -43 -18 5 -35 3
-71 57 -10 -45 -37 21 17 14
-25 -21 -69 -34 -50 -28 -52 -52
30 -26 6 71 62 34 47 -6
57 84 6 13 64 -19 -4 75
-56 -22 11 36 7 44 -83 -85
-10 -15 39 72 -31 -37 20 -8
00000000: cb14 0ad1 184b d819 0fc5 e46e fefb b8ec
00000010: f219 323f 24f3 1cf2 f223 0904 cb4b 0807
00000020: 3e1e 521a 4638 c235 dd33 d407 e63f 35f6
00000030: cedc 19c8 dc7f 0fc6 5ad0 dbdc d533 06c1
00000040: 7927 ef33 2037 d9e6 f2e9 7000 efe8 27b3
00000050: f82b 2743 c81a 4deb c12b 0451 1fb3 d20b
00000060: cfed 4104 43b1 17ee 431f d2cb 0421 1428
00000070: e5fe 4f2f f4f1 5bd7 c33c 4117 2c1c 27f6
00000080: 013a aac8 f1d1 0aeb 06d3 f3cb 2ed3 d729
00000090: fbfd 0f1c d118 1eeb 2c3a d842 3a2c 11d8
000000a0: bd43 0f22 fe2b e2cb bb16 3828 c2ce c92c
000000b0: d7d1 6bf8 fe08 d6f1 01d8 e052 310f 14e8
000000c0: dee4 de12 15f4 f002 4322 13d5 ee05 dd03
000000d0: b939 f6d3 db15 110e e7eb bbde cee4 cccc
000000e0: 1ee6 0647 3e22 2ffa 3954 060d 40ed fc4b
000000f0: c8ea 0b24 072c adab f6f1 2748 e1db 14f8

tfl.pseudo_qconst5 i1 [16, 3, 3, 8]
-38 -23 70 83 15 -62 56 -41
28 39 -25 -99 51 -82 19 -64
-12 -31 -6 78 -47 -65 -57 32
38 -27 3 45 19 -8 66 22
51 -90 -51 -15 10 -5 85 36
-5 57 1 22 -34 -15 27 49
-24 -127 -20 61 32 -80 -64 -57
-61 -93 -70 -98 -88 -56 82 -81
-14 -30 -17 -27 62 43 45 -104
-84 -20 78 63 -47 -77 -92 0
8 68 -4 85 80 -49 -26 57
48 46 44 -83 80 20 94 -71
-103 -85 43 62 54 -4 -10 -8
70 15 -44 -76 -68 -117 63 85
-106 56 47 1 -54 -127 52 -91
-71 -81 62 91 56 -40 6 34
88 64 31 73 74 77 -90 -19
-57 -72 12 28 -38 -20 -83 17
62 -96 -36 -32 14 -70 19 2
21 2 28 29 -21 127 12 40
-13 -84 102 -46 38 14 -56 1
-6 -97 60 -45 -79 67 -70 58
114 62 43 -66 98 -65 36 -36
-117 91 -81 -31 -102 -49 -111 81
-109 91 -24 -83 76 -15 90 -14
-10 89 28 81 1 64 -112 30
-97 55 -58 -111 -61 87 9 -82
-118 78 70 -78 -57 -81 -13 -1
93 -60 0 65 -76 2 -49 0
69 -44 84 109 -47 -57 41 -45
44 -90 -39 55 -11 63 -64 -31
90 34 -102 -98 76 -116 -62 -42
00000000: dae9 4653 0fc2 38d7 1c27 e79d 33ae 13c0
00000010: f4e1 fa4e d1bf c720 26e5 032d 13f8 4216
00000020: 33a6 cdf1 0afb 5524 fb39 0116 def1 1b31
00000030: e881 ec3d 20b0 c0c7 c3a3 ba9e a8c8 52af
00000040: f2e2 efe5 3e2b 2d98 acec 4e3f d1b3 a400
00000050: 0844 fc55 50cf e639 302e 2cad 5014 5eb9
00000060: 99ab 2b3e 36fc f6f8 460f d4b4 bc8b 3f55
00000070: 9638 2f01 ca81 34a5 b9af 3e5b 38d8 0622
00000080: 5840 1f49 4a4d a6ed c7b8 0c1c daec ad11
00000090: 3ea0 dce0 0eba 1302 1502 1c1d eb7f 0c28
000000a0: f3ac 66d2 260e c801 fa9f 3cd3 b143 ba3a
000000b0: 723e 2bbe 62bf 24dc 8b5b afe1 9acf 9151
000000c0: 935b e8ad 4cf1 5af2 f659 1c51 0140 901e
000000d0: 9f37 c691 c357 09ae 8a4e 46b2 c7af f3ff
000000e0: 5dc4 0041 b402 cf00 45d4 546d d1c7 29d3
000000f0: 2ca6 d937 f53f c0e1 5a22 9a9e 4c8c c2d6

tfl.pseudo_qconst7 i1 [8, 3, 3, 1]
54 -106 -103 39 -95 -106 127 -96
41 -43 65 78 -24 107 16 127
-98 73 27 -68 -111 -5 -8 38
127 57 52 36 32 91 -29 108
80 -20 10 127 90 -89 -93 49
-57 -37 -45 127 106 13 44 -102
-77 127 101 27 -68 109 -106 127
-104 16 -81 79 120 -31 -68 -26
-12 -123 27 51 26 127 41 18
00000000: 3696 9927 a196 7fa0 29d5 414e e86b 107f
00000010: 9e49 1bbc 91fb f826 7f39 3424 205b e36c
00000020: 50ec 0a7f 5aa7 a331 c7db d37f 6a0d 2c9a
00000030: b37f 651b bc6d 967f 9810 af4f 78e1 bce6
00000040: f485 1b33 1a7f 2912
